data/semantic_catalogs/weights/ridas/classifier.pth (torch, 21994 bytes, 2 tensors)

weight f4 [10, 512]
00000000: c388 1fbc 29b9 703a 44a8 0fbd a50c 88bb
00000010: 5ded 57bc bec8 fbba f322 9f3c 18e2 cd3b
00000020: 22d9 573a 56b5 90bc 630f 34bd 7ab3 aebb
00000030: ef4b 233d 61da e1bc 2ab5 da3c a0cf 033d
00000040: 14d4 e8bb 5e18 b83d 3f3a 073d 63b1 39bd
00000050: 2c23 943b 9ede 913c 0157 e83c 4ffd 20bd
00000060: 66ea 403c 58f0 883b 485d 6cbb b051 783a
00000070: 8705 28bd 1d72 05bc 5d91 d13c 80f5 09bd
00000080: 0a33 8d3c 1ff8 83bc 8b63 c6bc b1b6 243d
00000090: 863b d1bc 1fc7 eabc dd50 a0bc 64af 80bc
000000a0: 0be0 233c d82f beba 1610 cc3c 9a3b c03b
000000b0: 8dec 8f3c 6438 5ebc f439 fe3c f447 113c
000000c0: c9c5 353c 3068 de3a 1ca3 ab3b 2617 cbbc
000000d0: 82ac d93b d679 c2bc 902d 84bc a293 93bc
000000e0: 3945 8ebc 0840 46bb 4736 183c d9a4 1dbc
000000f0: 0b4d ebbb d42c 163c a15c 883c ac04 a4bc
00000100: 9c62 43bc 21e7 22bd 78b0 bebb 792e 973c
00000110: 4d93 17bc bae3 213d d546 e13c 5ce0 7c3b
00000120: 5208 8d3c 4cbb f33b b07b e3ba 66ea 683c
00000130: 1f12 f6ba 4e75 74bc f166 e0bc 1a0a 11bd
00000140: fac6 f8ba c0ac c63c 6cc4 f9ba c5f3 643d
00000150: 3994 503c 2bbe 233d ce45 93bd 0315 9a3c
00000160: 7500 cdbc f5c6 6cbb 2d9a 86bc 80e8 b3bc
00000170: 48af d93c 40bb 5639 461d e63b de22 08bc
00000180: b01b 9fb9 a876 27bc f03b c23c 6aba 073c
00000190: d51d c0bb 1ad7 d43b bc4a 3bbd 21be bfbc
000001a0: adbd b3bc 5206 58bc acf5 f33b f038 9b3b
000001b0: 3c7d f73c c0ef 5539 a319 d93c 7c42 423b
000001c0: 1d30 ad3c d4c9 81bb 0f98 1a3d 5932 8bbc
000001d0: 0c8c 1dbc 69e4 8dbc 4cd5 1dbd a934 c5bc
000001e0: c1ea f4bc 3409 fe3c b4a8 a3ba 305c e939
000001f0: 40b9 cdbb e5ef 42bc 87d1 093d e3be 8e3c
00000200: 68f6 f9bb fc0f a03c 506f 8f3d 69ca dd3b
00000210: c9f8 0a3c b8ab a7ba 8999 043d 7bd5 91bc
00000220: c855 a3bc 5f86 08bd c8e3 c83c 4f16 3bbd
00000230: 0a89 f2bc 360b 9dba 2596 9c3c 6136 6c3c
00000240: a4c4 f8bc de57 3ebb 827e f0bc 7584 da3c
00000250: b446 9cbc 3642 74bc e9c4 b53c 218e 4b3c
00000260: 0ce2 7e3c 1413 883c b897 5fbd ec54 93bc
00000270: d17a 8fbb 33eb d0bc d0d4 77bc ed82 223b
00000280: a21a 73bc 684d 443c 43fb eaba f5c9 a7bc
00000290: 230a 5cbd 0686 dc3c 1b39 84bc 62b7 293c
000002a0: eee9 ef3c c006 1bbb e451 16bd c6b9 e3bb
000002b0: 60da 5a3c bdab 203c a99a 2d3c 28e4 c4ba
000002c0: 14ec 66bc 4072 67bc 489b d4ba 5c87 7cbb
000002d0: ed5e 07bc 04f1 cb3c 04db 1e3c c362 e93c
000002e0: 672c 863c 28be 013d a898 573b 565c 4a3c
000002f0: b705 96bb 3a09 50bc 4f2f 233d 36f9 27bd
00000300: c6b1 c53c 1246 cdbc b313 1ebc 08c7 333c
00000310: 5e48 a3bc 96cc 313c e291 d23c 9abb 73bc
00000320: ddc6 df3c 8d54 8cbb d956 253d 5e21 c3bb
00000330: 4719 a33b 1c58 183c 1d22 2e3c a8d8 b8bc
00000340: bf3d 02bd 1e05 703c eeb2 513d 1383 e53b
00000350: 780d 93bc ceea 923b f897 46bd 50b8 c53c
00000360: 8ce7 c3b9 6786 99bc 7866 3e3a 409c 00bd
00000370: d010 8abc b561 65bc 8a8a 603d 0108 d3bb
00000380: b239 56bc 9463 713c 464d 68bc a865 3f3b
00000390: fa6b 913c 86cf 17bc 20f6 09bb 5348 093d
000003a0: 9219 1bbc de8a 5f3c 0d98 ff3b 2682 97bb
000003b0: 6959 9a3b c08c aebb 8574 2dbc 3d53 823c
000003c0: 913f bd3c 1ccc 02ba 7123 8ebc 6336 823b
000003d0: 8414 e4bb 3d6e 3c3d 6088 c83c a862 373c
000003e0: 7e82 c7bb c6b4 7abc e3d4 46bd 7078 95bb
000003f0: 4a21 e5bc e365 05bc 50b7 d23b 1eef c63c
-0.009737196 0.00091828645 -0.03507258 -0.004151898 -0.01317915 -0.0019209606 0.019425845 0.006283056
0.00082339544 -0.017664593 -0.043959986 -0.005331454 0.039867338 -0.027569951 0.026697714 0.03218043
-0.00710536 0.08989023 0.033014532 -0.045335185 0.0045207944 0.017806347 0.0283618 -0.039304074
0.011774635 0.004179042 -0.0036066342 0.00094726216 -0.041020896 -0.0081448825 0.02558201 -0.033681393
0.017236251 -0.016109524 -0.024217388 0.04021329 -0.025541078 -0.028659401 -0.019569809 -0.015708633
0.0100021465 -0.0014510108 0.024910014 0.00586648 0.01756885 -0.013563249 0.031033494 0.008867253
0.011094519 0.0016968306 0.00523795 -0.024791311 0.006642879 -0.023739737 -0.016135007 -0.018014733
-0.017366992 -0.0030250568 0.0092902845 -0.009621822 -0.007180815 0.009165961 0.016645731 -0.020021759
-0.011925366 -0.039771203 -0.0058193766 0.018454777 -0.009251428 0.039523818 0.027499596 0.0038585877
0.017215881 0.007438099 -0.0017355587 0.014216041 -0.0018773711 -0.014920546 -0.027392836 -0.035410024
-0.0018980198 0.024252295 -0.0019055731 0.05589654 0.012730652 0.03997628 -0.071910486 0.018808847
-0.025024632 -0.003612933 -0.016430939 -0.02196145 0.026572838 0.00020478386 0.0070225326 -0.008309094
-0.00030347472 -0.010221161 0.023710221 0.008284191 -0.0058629313 0.0064953687 -0.04572557 -0.02340609
-0.02194103 -0.013185101 0.007445058 0.004737012 0.030211084 0.00020402577 0.026501482 0.0029641679
0.021141106 -0.0039608274 0.03774267 -0.016991781 -0.009615909 -0.017320829 -0.038533494 -0.024072962
-0.029897096 0.031010248 -0.001248619 0.00044509908 -0.006278187 -0.011898016 0.033647086 0.017425006
-0.007628251 0.019538872 0.07003653 0.006768514 0.008482167 -0.0012792265 0.032372985 -0.01780199
-0.019938365 -0.03333127 0.024522677 -0.045675572 -0.029606361 -0.001198149 0.019114563 0.014417262
-0.030367203 -0.0029044072 -0.029357199 0.026674489 -0.019076683 -0.014908364 0.02218862 0.012424023
0.015556823 0.01661066 -0.05458805 -0.01798483 -0.0043786545 -0.025502777 -0.015126422 0.0024797276
-0.014837893 0.011981346 -0.0017927665 -0.020482043 -0.053720605 0.026919376 -0.016140511 0.010358663
0.029286351 -0.0023655146 -0.03669919 -0.006949636 0.013357729 0.009806571 0.010595956 -0.0015021609
-0.014094371 -0.01412636 -0.0016220594 -0.003853283 -0.008262378 0.024895199 0.009695772 0.028489476
0.016378595 0.031675488 0.0032897387 0.012351116 -0.004578318 -0.012697512 0.03984004 -0.04100915
0.02413262 -0.025057826 -0.009648251 0.010972746 -0.019931968 0.010852 0.025704328 -0.014876271
0.027316505 -0.00428254 0.040366028 -0.0059549054 0.0049773785 0.009298351 0.01062825 -0.022564247
-0.031797167 0.0146496575 0.05119603 0.0070041507 -0.017950758 0.0044835573 -0.048484772 0.024135739
-0.00037365814 -0.018740846 0.0007263194 -0.03139901 -0.01685372 -0.014000346 0.05481962 -0.006440163
-0.013075279 0.014733214 -0.01417858 0.002920488 0.017751683 -0.009265786 -0.0021051243 0.03351624
-0.009466546 0.013643948 0.0078001083 -0.004623669 0.0047103656 -0.0053268373 -0.010586862 0.015908832
0.0231016 -0.0004989521 -0.017350884 0.0039737686 -0.0069604535 0.04600357 0.024479091 0.011192955
-0.006088554 -0.015301889 -0.04854287 -0.0045614764 -0.027969975 -0.0081419675 0.006430544 0.024283942

bias f4 [10]
00000000: 2ff5 393c 4eb3 443c af2a 503c 4702 c53c
00000010: 3068 61bc 7793 393c cfbf 8d3c 8be1 e63a
00000020: 7446 293a 743c fd3b
0.01134996 0.01200564 0.012705489 0.024048937 -0.01375775 0.011326662 0.017303376 0.0017614824
0.0006457337 0.007728154
