data/semantic_catalogs/weights/ridas/decoder_cifar100.pth (torch, 206734 bytes, 2 tensors)

weight f4 [100, 512]
00000000: c84b 51bd a576 e6bc 4b58 34be ccc7 4e3d
00000010: ae1e 393e 4340 d33d 2018 6fbd b89b 1d3c
00000020: 3d83 6fbd efa3 aebd d047 c5bd 9d7b 343e
00000030: a668 51bd ba76 f83d b9c2 40bd acca a53d
00000040: e238 39bd e827 263e f879 0a3e 87e6 a03d
00000050: 6ca3 9f3d 9dae 043e 99aa f63d 0390 08be
00000060: 7c33 9f3d a110 ac3c 8209 b63d f42d 383d
00000070: d5cb 6bbe 0670 b9bd 3b10 18be 8532 d4bd
00000080: 1808 23bb a80e 93bd daa3 97bd 67cd aebd
00000090: 460d a0bd e499 77bc a4d3 f73d 9df4 ac3d
000000a0: 2484 cabd 052d f53d deb3 433e 91ab 89bc
000000b0: 78d0 c9bc f4d7 ebbc 23d0 d9bd 9644 91bc
000000c0: e4b3 48bd 222b af3c ba4b aa3d 9298 a0bd
000000d0: d929 5c3d 1aa4 45be 6abe 23bb b6a7 b33c
000000e0: e81f 753d dd9a 11be df08 503d 5d06 033d
000000f0: bfbb 843c d25f 0bbe a16c e33d 88f7 e5bd
00000100: 55ab a93c f746 f7bb f372 c4bd 69ad d23d
00000110: 219a 0a3e 3117 693d cd6a 62be 2e75 dfbb
00000120: b272 523d 2e2e 513c 69b9 e8bd 82fe 483e
00000130: c423 ca3c 6614 853d bb5e d13d 221a 5bbd
00000140: d456 3cbe f5a3 9f3c 6cff 1e3e d71a d1bd
00000150: b4a1 d2bd 8d50 3dbe 3426 69be be16 99bd
00000160: d018 febd 8bd4 2bbd 27be dd3d c259 bebd
00000170: 1d50 a5bd 887e 9e3d 2688 8f3d 2a1d e73d
00000180: 1a78 73bc 63e1 ff3d dc5d 343d 25bb bebb
00000190: bb1c 863a e664 483e 31ab c1bd 1e65 7bbd
000001a0: 96d1 9cbc a0ae 29be c28a a33d 8b74 32be
000001b0: 16c0 05be 8119 c93d b8f8 2bbd 0fbc b73d
000001c0: dd3c 553d 3327 35bd 73d6 cd3d d2d2 5bbe
000001d0: 7a85 14be b9c5 863d 4d3c 9fbd 4c01 453d
000001e0: fb49 8f3d b3b1 c6bd 349f fc3c e759 58bd
000001f0: ff04 c53c a73e 993c 6392 32bd 04d4 b43d
00000200: cfc0 d13d a7bb c1bd 7fd2 3bbe 2b6b 813d
00000210: 40a1 5a3d b33f 5f3d 06b9 803d d6ce 3cbe
00000220: 92da 90bd 9ae4 ab3d a213 34be 36d2 00be
00000230: 0231 febd ff12 173e f358 c83d 2ba3 543d
00000240: a62e f8bd 0512 98bd 35a2 08bd 4b76 fb3d
00000250: dbba 3fbd 575c 103d 92d3 4f3e 6f2d 543e
00000260: 5bf0 de3d 2803 bbbd 0c32 e2bd be5e cfbd
00000270: eb43 a6bb f3fb 95bd ae4a fd3d 7f9b 963d
00000280: 2307 68bd 3e8e 1b3e 7fd9 4abd 2a62 073e
00000290: cc82 9cbb 4125 b3bd cee1 89bd 2922 e7bb
000002a0: 1485 a5bc 9948 68bd 8efc de3d 6425 cfbc
000002b0: f813 373d 9eb9 0d3c 7978 2d3e 11dd 273d
000002c0: a61a 1f3d 7a6e a0bd 9ce2 983d 894a cfbd
000002d0: 629c a93d 1baf f03b 0c7d b73d 2fcb 9bbd
000002e0: 7553 883d 672e b2bc f16f d33d f3d5 04bd
000002f0: 429f f8bd 5324 003e d8d5 05be b53b 7a3d
00000300: 6339 0fbc f1c8 49bb 736d dd3d 5615 ab3d
00000310: ed0e ad3d 5580 0abd df61 28be 0bd2 063e
00000320: 7fe1 45be 4902 ce3c b3df a83d dc23 eebc
00000330: 3d1b da3d 7a9f d83d 92b6 443e 6be3 0ebe
00000340: f87b a33d 684e b13c bdc9 a3bd 8569 103e
00000350: 9014 40bc 42e1 d73d 919c bc3d 9995 123e
00000360: 43b6 b63d 1ea3 0bbe b7f6 693e 7a78 ccbc
00000370: ec76 823c 78b4 4f3d 8bc3 a03d 73b4 1dbd
00000380: 7c20 153e 8b9b 353e 93da 73be fe83 883d
00000390: 8a84 32be 2da8 25bd 75d8 a53d d5d4 8abd
000003a0: 1596 8f3d 5f24 22bd 212c 2f3e 5751 08be
000003b0: 3c10 8e3d 166e b7bd 3df9 2f3d 440f 1cbe
000003c0: 2639 053c 5e55 2cbd e64a b83d 0d51 553e
000003d0: b11f e03d 339e 623e b3e0 f43d 9571 fdbd
000003e0: 547f 563d cb1f 47be 47ac 61bd 7701 f8bc
000003f0: 349b 97bd a079 173e 2fc1 c8bc 96c4 fb3d
-0.05109766 -0.028132746 -0.17611806 0.05048351 0.1807811 0.10314991 -0.058372617 0.009619646
-0.058474768 -0.085273616 -0.09632838 0.1762528 -0.05112519 0.1213202 -0.047060702 0.08095297
-0.045220263 0.1622616 0.1352309 0.078564696 0.07794842 0.12957235 0.12044258 -0.13336186
0.07773492 0.021004023 0.08888532 0.0449657 -0.23026974 -0.0905457 -0.14849941 -0.10361198
-0.002487665 -0.0718053 -0.07404299 -0.08535271 -0.07815032 -0.015112374 0.12100914 0.08445094
-0.09888485 0.119714774 0.19111583 -0.016805442 -0.024635538 -0.028789498 -0.10635402 -0.0177329
-0.048999682 0.021382872 0.08315225 -0.078416005 0.053750847 -0.19300881 -0.0024985322 0.021930557
0.05984488 -0.14219232 0.05078971 0.03198849 0.016202806 -0.13610771 0.11104704 -0.112288535
0.02071158 -0.0075463015 -0.09592237 0.102869816 0.13535358 0.056906883 -0.22111054 -0.006819389
0.051378913 0.012767358 -0.11363489 0.19628337 0.024675258 0.06498031 0.102231465 -0.05349172
-0.18392497 0.01948736 0.15527123 -0.102101974 -0.10284749 -0.18487759 -0.2276848 -0.07475041
-0.12407076 -0.041950744 0.10827284 -0.09294464 -0.08071921 0.07738978 0.0700839 0.112848595
-0.014860177 0.12494161 0.044034824 -0.005820649 0.0010231951 0.1956974 -0.0945648 -0.06137573
-0.019142907 -0.1657052 0.0798545 -0.1742727 -0.13061556 0.098193176 -0.041985244 0.08971416
0.052059997 -0.044226836 0.100506686 -0.2146714 -0.14504042 0.06580681 -0.07775173 0.04809694
0.069965325 -0.09701862 0.030837633 -0.052820113 0.024050234 0.018706633 -0.043596637 0.08829501
0.102418534 -0.0945962 -0.18342017 0.06319269 0.053376436 0.054504108 0.062852904 -0.18438277
-0.07072939 0.08393212 -0.17585614 -0.12580189 -0.12411691 0.1475334 0.09782591 0.05191342
-0.121182725 -0.07425312 -0.033357818 0.12278422 -0.04680906 0.035244312 0.20295551 0.20720457
0.10885688 -0.091314614 -0.11044702 -0.101254925 -0.0050740144 -0.07323446 0.1236776 0.07353877
-0.05664743 0.1519098 -0.049523827 0.1322104 -0.0047763344 -0.0874734 -0.06732522 -0.0070536328
-0.020205058 -0.05670986 0.10888015 -0.025286384 0.044696778 0.008650212 0.16940488 0.04098231
0.038843773 -0.07833572 0.07465097 -0.10121638 0.08281781 0.007345093 0.08959398 -0.076071136
0.06656543 -0.021750642 0.103240855 -0.0324306 -0.12139751 0.12513857 -0.13069856 0.061092097
-0.008741709 -0.0030789936 0.108118914 0.08353679 0.084501125 -0.033813793 -0.16443585 0.13166063
-0.19324301 0.025147574 0.08245792 -0.029069833 0.106497265 0.10577293 0.1921027 -0.1395394
0.079826295 0.021643832 -0.07997463 0.14102753 -0.0117236525 0.105410114 0.0920955 0.1431488
0.089214824 -0.13636443 0.2284802 -0.024959791 0.015925847 0.050709218 0.07849797 -0.038502168
0.14563173 0.17735116 -0.23813848 0.066658005 -0.17433372 -0.040443588 0.080979265 -0.06778876
0.07011048 -0.039585467 0.17106678 -0.13312279 0.0693669 -0.08956544 0.0429623 -0.15240198
0.008131301 -0.0420736 0.08998661 0.208317 0.10943545 0.2213066 0.119569205 -0.1237518
0.052367523 -0.19445722 -0.055095937 -0.030274136 -0.074026495 0.1479249 -0.02450618 0.12293355

bias f4 [100]
00000000: af39 01bc 624e 2ebd feea e23b 392a 0a3d
00000010: 94d8 dabc c10b 0b3d 09f8 bcbc c967 1b3c
00000020: ebed ed3b 0c58 1d3d 1366 00bd 6a96 583d
00000030: c084 f6ba 8f8b bc3c dcee e13c b43a c7bc
00000040: fa08 ba3c 658a 313d 35d5 2abd 476d d63c
00000050: 21ab cd3c 31cf cebc 9f87 9abc a50b cdba
00000060: da18 173d 2118 3fbc 04bc c73c 4d74 fb3b
00000070: ff1f eebc 078a a2bb fa0f 15bd bd6b c0bc
00000080: 2d98 e2bc 0b20 bf39 d9f6 2fbd d25b 77bc
00000090: c1a7 aa3c 41b6 17bd c86b 443c c70a f0bc
000000a0: 3038 1a3d b942 083d 00ea 863c 8a79 0fbd
000000b0: 3bef 73bc 937e 033d 2cca 063d d442 36bc
000000c0: f325 79bc 5913 3cbd e81a 28bd 6886 eb3c
000000d0: 9939 2dbd d3c9 123d c3c0 bf3c 9194 4dbd
000000e0: e0ae 843c 3815 183d 6424 673c 4767 e3bc
000000f0: 25ed d43c 7f69 bb3b 3963 05bc 2cae 483c
00000100: 34d8 eebc e719 7d3c 9bee 953c 3e56 c13c
00000110: 6d9d b8bc a498 ee3a bfda 80bc fe7a d03c
00000120: 7de3 8b3c d29c 43bc e388 813c ea9e a93c
00000130: 17eb 6f3a fd59 9a3c 2f2a 283c c6ba c83c
00000140: fc01 1d3d 1fa8 253d 1fe8 843c 2c89 14bd
00000150: 46c7 00bd f0a3 cc3c 58c1 67bc 0ce3 8f3c
00000160: c47c 42bd b18d 1cbd cc0e 303d e8bf 1ebb
00000170: 0a82 8d3c d9de 8dbc 512b 06bd 3af5 94bc
00000180: 3959 ff3c 920e 41bd d828 073d 0378 293d
-0.007887288 -0.04255522 0.006924986 0.033731673 -0.0267146 0.033946756 -0.023067491 0.0094851935
0.007261028 0.038414046 -0.031347346 0.05287782 -0.0018807873 0.023015765 0.027579717 -0.024319984
0.022709358 0.043344874 -0.041707236 0.026175154 0.025106015 -0.025245281 -0.018863497 -0.0015643729
0.036888935 -0.011663468 0.024381645 0.0076737762 -0.029067991 -0.004960302 -0.03639219 -0.023488874
-0.027660454 0.00036454233 -0.04296002 -0.015097575 0.020831944 -0.037039045 0.011988588 -0.029302014
0.03765124 0.033266757 0.016469002 -0.035028018 -0.01488858 0.032103132 0.03290765 -0.0111243315
-0.015206802 -0.04591689 -0.041041285 0.028750613 -0.042291258 0.035837006 0.023407346 -0.050190512
0.016196668 0.03712961 0.014107797 -0.027759207 0.025991986 0.005719363 -0.008141332 0.012248557
-0.029155828 0.01544807 0.018302253 0.023600694 -0.022536004 0.001820345 -0.015729306 0.025449272
0.017076248 -0.011939244 0.015812343 0.020705659 0.00091521576 0.018841738 0.010263964 0.024503123
0.03833197 0.040443536 0.016223965 -0.03626363 -0.031440042 0.024980515 -0.014145218 0.01756432
-0.047482267 -0.038221065 0.04298286 -0.0024223272 0.017273922 -0.017318176 -0.032756153 -0.01818334
0.031170474 -0.047133036 0.032997936 0.041374218
